Model: "sequential"
+--------------------------------------------------------------------------------------+
| Layer (type)                         | Output Shape                |         Param # |
|--------------------------------------+-----------------------------+-----------------|
| conv2d (Conv2D)                      | (None, 256, 256, 32)        |             896 |
|--------------------------------------+-----------------------------+-----------------|
| max_pooling2d (MaxPooling2D)         | (None, 128, 128, 32)        |               0 |
|--------------------------------------+-----------------------------+-----------------|
| conv2d_1 (Conv2D)                    | (None, 128, 128, 8)         |           2,312 |
|--------------------------------------+-----------------------------+-----------------|
| max_pooling2d_1 (MaxPooling2D)       | (None, 64, 64, 8)           |               0 |
|--------------------------------------+-----------------------------+-----------------|
| conv2d_2 (Conv2D)                    | (None, 64, 64, 8)           |             584 |
|--------------------------------------+-----------------------------+-----------------|
| up_sampling2d (UpSampling2D)         | (None, 128, 128, 8)         |               0 |
|--------------------------------------+-----------------------------+-----------------|
| conv2d_3 (Conv2D)                    | (None, 128, 128, 8)         |             584 |
|--------------------------------------+-----------------------------+-----------------|
| up_sampling2d_1 (UpSampling2D)       | (None, 256, 256, 8)         |               0 |
|--------------------------------------+-----------------------------+-----------------|
| conv2d_4 (Conv2D)                    | (None, 256, 256, 32)        |           2,336 |
|--------------------------------------+-----------------------------+-----------------|
| conv2d_5 (Conv2D)                    | (None, 256, 256, 3)         |             867 |
+--------------------------------------------------------------------------------------+
 Total params: 7,579 (29.61 KB)
 Trainable params: 7,579 (29.61 KB)
 Non-trainable params: 0 (0.00 B)
Epoch 1/400

[1m1/1[0m [32m====================[0m[37m[0m [1m0s[0m 2s/step - accuracy: 0.0217 - loss: 0.1346
Epoch 1: loss improved from inf to 0.13465, saving model to best_model.h5
WARNING:absl:You are saving your model as an HDF5 file via `model.save()` or `keras.saving.save_model(model)`. This file format is considered legacy. We recommend using instead the native Keras format, e.g. `model.save('my_model.keras')` or `keras.saving.save_model(model, 'my_model.keras')`. 
…
